…
:11,"id":"3967f030","metadata":{"id":"3967f030","outputId":"545794b8-d179-465b-fbe9-0e0ee30e8d6f","colab":{"base_uri":"https://localhost:8080/"},"executionInfo":{"status":"ok","timestamp":1747660513313,"user_tz":-180,"elapsed":129,"user":{"displayName":"Alex Dolgikh","userId":"12389630568066461900"}}},"outputs":[{"output_type":"stream","name":"stdout","text":["----------------------------------------------------------------\n","        Layer (type)               Output Shape         Param #\n","================================================================\n","            Conv2d-1           [-1, 32, 32, 32]             896\n","              ReLU-2           [-1, 32, 32, 32]               0\n","            Conv2d-3           [-1, 32, 32, 32]           9,248\n","              ReLU-4           [-1, 32, 32, 32]               0\n","         MaxPool2d-5           [-1, 32, 16, 16]               0\n","            Conv2d-6           [-1, 64, 16, 16]          18,496\n","              ReLU-7           [-1, 64, 16, 16]               0\n","            Conv2d-8           [-1, 64, 16, 16]          36,928\n","              ReLU-9           [-1, 64, 16, 16]               0\n","        MaxPool2d-10             [-1, 64, 8, 8]               0\n","          Flatten-11                 [-1, 4096]               0\n","           Linear-12                   [-1, 64]         262,208\n","             ReLU-13                   [-1, 64]               0\n","           Linear-14                   [-1, 10]             650\n","================================================================\n","Total params: 328,426\n","Trainable params: 328,426\n","Non-trainable params: 0\n","----------------------------------------------------------------\n","Input size (MB): 0.01\n","Forward/backward pass size (MB): 1.63\n","Params size (MB): 1.25\n","Estimated Total Size (MB): 2.89\n","------------------------------------------
…
":38,"id":"22105b40","metadata":{"id":"22105b40","outputId":"0dc6135d-d9ed-46a0-e90d-299fcb90d3f9","colab":{"base_uri":"https://localhost:8080/"},"executionInfo":{"status":"ok","timestamp":1747663351686,"user_tz":-180,"elapsed":99,"user":{"displayName":"Alex Dolgikh","userId":"12389630568066461900"}}},"outputs":[{"output_type":"stream","name":"stdout","text":["----------------------------------------------------------------\n","        Layer (type)               Output Shape         Param #\n","================================================================\n","            Conv2d-1           [-1, 64, 32, 32]           1,792\n","       BatchNorm2d-2           [-1, 64, 32, 32]             128\n","              ReLU-3           [-1, 64, 32, 32]               0\n","            Conv2d-4           [-1, 64, 32, 32]          36,928\n","       BatchNorm2d-5           [-1, 64, 32, 32]             128\n","              ReLU-6           [-1, 64, 32, 32]               0\n","         MaxPool2d-7           [-1, 64, 16, 16]               0\n","            Conv2d-8          [-1, 128, 16, 16]          73,856\n","       BatchNorm2d-9          [-1, 128, 16, 16]             256\n","             ReLU-10          [-1, 128, 16, 16]               0\n","           Conv2d-11          [-1, 128, 16, 16]         147,584\n","      BatchNorm2d-12          [-1, 128, 16, 16]             256\n","             ReLU-13          [-1, 128, 16, 16]               0\n","        MaxPool2d-14            [-1, 128, 8, 8]               0\n","           Conv2d-15            [-1, 256, 8, 8]         295,168\n","      BatchNorm2d-16            [-1, 256, 8, 8]             512\n","             ReLU-17            [-1, 256, 8, 8]               0\n","           Conv2d-18            [-1, 256, 8, 8]         590,080\n","      BatchNorm2d-19            [-1, 256, 8, 8]             512\n","             ReLU-20            [-1, 256, 8, 8]               0\n","           Conv2d-21            [-1, 256, 8, 8]         590,080\n","      BatchNorm2d-22            [-1, 256, 8, 8]             512\n","             ReLU-23            [-1, 256, 8, 8]               0\n","        MaxPool2d-24            [-1, 256, 4, 4]               0\n","           Conv2d-25            [-1, 512, 4, 4]       1,180,160\n","      BatchNorm2d-26            [-1, 512, 4, 4]           1,024\n","             ReLU-27            [-1, 512, 4, 4]               0\n","           Conv2d-28            [-1, 512, 4, 4]       2,359,808\n","      BatchNorm2d-29            [-1, 512, 4, 4]           1,024\n","             ReLU-30            [-1, 512, 4, 4]               0\n","           Conv2d-31            [-1, 512, 4, 4]       2,359,808\n","      BatchNorm2d-32            [-1, 512, 4, 4]           1,024\n","             ReLU-33            [-1, 512, 4, 4]               0\n","        MaxPool2d-34            [-1, 512, 2, 2]               0\n","           Conv2d-35            [-1, 512, 2, 2]       2,359,808\n","      BatchNorm2d-36            [-1, 512, 2, 2]           1,024\n","             ReLU-37            [-1, 512, 2, 2]               0\n","           Conv2d-38            [-1, 512, 2, 2]       2,359,808\n","      BatchNorm2d-39            [-1, 512, 2, 2]           1,024\n","             ReLU-40            [-1, 512, 2, 2]               0\n","           Conv2d-41            [-1, 512, 2, 2]       2,359,808\n","      BatchNorm2d-42            [-1, 512, 2, 2]           1,024\n","             ReLU-43            [-1, 512, 2, 2]               0\n","        MaxPool2d-44            [-1, 512, 1, 1]               0\n","AdaptiveAvgPool2d-45            [-1, 512, 7, 7]               0\n","           Linear-46                 [-1, 4096]     102,764,544\n","             ReLU-47                 [-1, 4096]               0\n","          Dropout-48                 [-1, 4096]               0\n","           Linear-49                 [-1, 4096]      16,781,312\n","             ReLU-50                 [-1, 4096]               0\n","          Dropout-51                 [-1, 4096]               0\n","           Linear-52                 [-1, 1000]       4,097,000\n","================================================================\n","Total params: 138,365,992\n","Trainable params: 138,365,992\n","Non-trainable params: 0\n","----------------------------------------------------------------\n","Input size (MB): 0.01\n","Forward/backward pass size (MB): 6.95\n","Params size (MB): 527.82\n","Estimated Total Size (MB): 534.79\n","------------------------------
…
