…
48476533,"user_tz":-180,"elapsed":26,"user":{"displayName":"Alex Dolgikh","userId":"12389630568066461900"}}},"execution_count":98,"outputs":[]},{"cell_type":"code","execution_count":99,"metadata":{"colab":{"base_uri":"https://localhost:8080/"},"id":"rS6xipH0O6gM","outputId":"f4a92a7e-2dea-4a6c-f87b-80c1cd82cfa1","executionInfo":{"status":"ok","timestamp":1747648478333,"user_tz":-180,"elapsed":8,"user":{"displayName":"Alex Dolgikh","userId":"12389630568066461900"}}},"outputs":[{"output_type":"execute_result","data":{"text/plain":["Sequential(\n","  (0): Flatten(start_dim=1, end_dim=-1)\n","  (1): Linear(in_features=784, out_features=512, bias=True)\n","  (2): ReLU()\n","  (3): Linear(in_features=512, out_features=256, bias=True)\n","  (4): ReLU()\n","  (5): Linear(in_features=256, out_features=128, bias=True)\n","  (6): ReLU()\n","  (7): Linear(in_features=128, out_features=64, bias=True)\n","  (8): ReLU()\n","  (9): Linear(in_features=64, out_features=32, bias=True)\n","  (10): ReLU()\n","  (11): Linear(in_features=32, out_features=16, bias=True)\n","  (12): ReLU()\n","  (13): Linear(in_features=16, out_features=10, bias=True)\n",")"]},"metadata":{},"execution_count":99}],"source":["model"]},{"cell_type":"markdown","metadata":{"id":"ksyDOPpWNzdG"},"source":["Модель в Pytorch  можно создать и по-другому, через класс. В `init` мы должны прописать все слои. В данном случае они сгруппированы в `nn.Sequential`, но их можно задать через различные переменные.\n","\n","Метод `forward`
…
"Alex Dolgikh","userId":"12389630568066461900"}}},"outputs":[],"source":["# Теперь модель нужно инициализировать\n","model = SimpleModel()"]},{"cell_type":"code","execution_count":101,"metadata":{"colab":{"base_uri":"https://localhost:8080/"},"id":"Y9siRivphwyp","outputId":"a9faa562-c1e9-402d-99d4-39fe991d92ed","executionInfo":{"status":"ok","timestamp":1747648483953,"user_tz":-180,"elapsed":10,"user":{"displayName":"Alex Dolgikh","userId":"12389630568066461900"}}},"outputs":[{"output_type":"execute_result","data":{"text/plain":["Sequential(\n","  (0): Flatten(start_dim=1, end_dim=-1)\n","  (1): Linear(in_features=784, out_features=512, bias=True)\n","  (2): ReLU()\n","  (3): Linear(in_features=512, out_features=256, bias=True)\n","  (4): ReLU()\n","  (5): Linear(in_features=256, out_features=128, bias=True)\n","  (6): ReLU()\n","  (7): Linear(in_features=128, out_features=64, bias=True)\n","  (8): ReLU()\n","  (9): Linear(in_features=64, out_features=32, bias=True)\n","  (10): ReLU()\n","  (11): Linear(in_features=32, out_features=16, bias=True)\n","  (12): ReLU()\n","  (13): Linear(in_features=16, out_features=10, bias=True)\n",")"]},"metadata":{},"execution_count":101}],"source":["model"]},{"cell_type":"markdown","metadata":{"id":"BgaWvsUIM0zo"},"source":["Вы можете заметить, что мы не использовали в нашей модели softmax. Связано это с тем, что функция потерь `CrossEntropyLoss` в библиотеке PyTorch уже включает рассчет вероятностей по классам, то есть softmax."]},{"cell_typ
…
 нашу модель на поддерживаемый девайс. Сами данные мы будем тоже переводить на его вычислительные мощности, но уже в самом цикле обучения."]},{"cell_type":"code","execution_count":104,"metadata":{"colab":{"base_uri":"https://localhost:8080/"},"id":"lDKRm-Q9QYP2","outputId":"b7e72edd-591f-4084-b50f-bcc9629a26d3","executionInfo":{"status":"ok","timestamp":1747648493212,"user_tz":-180,"elapsed":16,"user":{"displayName":"Alex Dolgikh","userId":"12389630568066461900"}}},"outputs":[{"output_type":"execute_result","data":{"text/plain":["Sequential(\n","  (0): Flatten(start_dim=1, end_dim=-1)\n","  (1): Linear(in_features=784, out_features=512, bias=True)\n","  (2): ReLU()\n","  (3): Linear(in_features=512, out_features=256, bias=True)\n","  (4): ReLU()\n","  (5): Linear(in_features=256, out_features=128, bias=True)\n","  (6): ReLU()\n","  (7): Linear(in_features=128, out_features=64, bias=True)\n","  (8): ReLU()\n","  (9): Linear(in_features=64, out_features=32, bias=True)\n","  (10): ReLU()\n","  (11): Linear(in_features=32, out_features=16, bias=True)\n","  (12): ReLU()\n","  (13): Linear(in_features=16, out_features=10, bias=True)\n",")"]},"metadata":{},"execution_count":104}],"source":["model.to(device)"]},{"cell_type":"markdown","metadata":{"id":"C_hq5K6Oahnr"},"source":["### Обучение модели\n","**Тренировка с указанием данных, числа эпох и размера подвыборки**\n","\n","Теперь задана структура модели. Мы можем итерироваться по эпохам и батчам, и параметры будут оптимизироваться 
…
